snake-pytorch-reinforcement/model/model.pth (torch, 16787 bytes, 4 tensors)

linear1.weight f4 [256, 11]
-0.23887879 -0.20950155 0.0069590867 -0.3269065 -0.28194138 -0.05400356 -0.025783679 0.19472037
0.100473195 -0.17310299 -0.2811064 0.107920736 -0.21761118 0.55558866 -0.31605616 -0.18093845
-0.011668781 0.18940337 0.2490995 -0.22876205 0.09405811 -0.01909683 -0.069119334 -0.048498258
-0.021367341 -0.07759997 -0.12710513 -0.28811535 0.20232515 -0.16864441 0.25206435 -0.069293186
-0.027320987 0.580258 0.30009285 -0.084660895 0.25623006 -0.27432406 -0.060565453 0.016446037
-0.11884933 0.3954677 0.274747 0.17005736 0.22857589 0.1696962 -0.20898865 0.21508475
-0.26231575 -0.28180477 0.094150506 -0.20091294 -0.004826192 -0.2592594 -0.13967223 -0.21140897
0.27063882 0.064437985 -0.10600807 0.13082835 0.11262017 -0.41170523 0.079504654 -0.07472494
-0.09698273 -0.23355934 0.22131498 0.3817706 -0.17016529 0.2339567 0.05266314 -0.11593026
0.09512711 0.31146735 -0.15808438 -0.07734217 -0.09017304 0.174296 -0.115259886 0.27677858
0.15739645 0.15858868 0.20467553 0.24724147 0.30598983 0.19142139 0.34529385 0.37855992
-0.311701 0.12053131 0.27180988 -0.3575394 -0.03738986 -0.23887111 -0.15212773 0.275663
-0.21264835 -0.2779517 -0.2756052 -0.085008405 0.37400606 -0.23346417 0.34744093 0.106284186
-0.018153824 -0.018411186 0.28318986 -0.25442702 -0.08234565 0.07566314 0.248457 -0.26565254
-0.3061155 -0.06441804 0.18857768 -0.12130476 0.19067733 0.101043426 -0.24004748 0.0403
0.11019943 -0.1404276 0.23334362 -0.33591706 -0.1983142 0.04531727 -0.16482635 0.03813057
0.07457969 -0.33198383 0.288171 -0.31846112 0.2421417 0.047373567 0.09919115 0.009618889
0.18988372 -0.18345332 -0.24882647 -0.388751 -0.21917993 0.2822623 -0.34364638 0.26739058
-0.03732998 -0.15151492 0.24753454 0.16627046 -0.02461444 -0.17874861 -0.25226468 -0.050272208
0.08371367 0.30416057 -0.45244876 0.5739548 -0.022686448 -0.034834582 -0.21976647 -0.21281826
-0.07895028 0.27502218 -0.30953106 -0.1909752 0.1546583 0.047738694 0.09040969 0.34572628
-0.3016315 0.20231634 0.005509635 0.05183856 0.19150221 -0.30897638 0.2586853 -0.15050897
-0.30153534 -0.042128608 0.34628144 -0.18593904 0.17355637 -0.039420683 0.21204296 -0.11385596
0.12413574 -0.051120643 0.1862401 0.37201068 0.08444973 0.22611903 0.079861306 -0.089036256
-0.2126123 0.073240995 -0.07848753 0.08075904 0.25118336 -0.0023949498 0.34848925 0.32449386
0.21472561 -0.2846528 0.29211462 0.23859075 0.205428 0.36946526 -0.14159147 -0.005510262
-0.07481287 -0.12505639 -0.23362423 0.020407557 -0.25165406 0.0122541785 -0.011401981 -0.24769332
-0.29772043 -0.18972531 -0.06716479 0.035625905 0.4033166 0.2654757 0.23940532 0.22186501
-0.117422804 -0.047731284 0.25959635 0.083774544 0.045246806 -0.09634118 0.21145985 -0.04408115
-0.2110376 0.20649461 -0.18437219 -0.23906787 0.11773867 -0.08949677 0.0060385694 0.12319664
-0.028976081 -0.22967857 -0.0071957707 -0.07198478 0.07024117 0.17491327 -0.28836292 -0.20442404
0.14566702 -0.21400067 -0.23699637 -0.20918716 -0.14590526 -0.20218246 -0.13163246 0.490278
00000000: a49c 74be 9387 56be 0d09 e43b 4a60 a7be
00000010: 9f5a 90be d632 5dbd 4b38 d3bc c764 473e
00000020: e4c4 cd3d e941 31be 2eed 8fbe 8c05 dd3d
00000030: 77d5 5ebe 0f3b 0e3f 1dd2 a1be ee47 39be
00000040: 6a2e 3fbc f5f2 413e f013 7f3e 9940 6abe
00000050: 8aa1 c03d f570 9cbc 708e 8dbd 1ca6 46bd
00000060: 900a afbc bcec 9ebd d927 02be db83 93be
00000070: 532e 4f3e 1fb1 2cbe 940e 813e 96e9 8dbd
00000080: 43d0 dfbc ca8b 143f c5a5 993e b162 adbd
00000090: 9630 833e 3474 8cbe 7b13 78bd d7b9 863c
000000a0: 4767 f3bd be7a ca3e a4ab 8c3e 8423 2e3e
000000b0: cc0f 6a3e d7c4 2d3e 1f01 56be 2d3f 5c3e
000000c0: 404e 86be b748 90be fbd1 c03d 1fbc 4dbe
000000d0: 0825 9ebb a6bd 84be 3d06 0fbe 987b 58be
000000e0: 2c91 8a3e 10f8 833d c21a d9bd def7 053e
000000f0: 67a5 e63d 07cb d2be 56d3 a23d 6409 99bd
00000100: e29e c6bd 2e2a 6fbe 65a0 623e 7077 c33e
00000110: cf3f 2ebe 5892 6f3e 4eb5 573d d86c edbd
00000120: 01d2 c23d a678 9f3e dfe0 21be 9265 9ebd
00000130: a5ac b8bd a77a 323e 600d ecbd ecb5 8d3e
00000140: 892c 213e 1265 223e 7696 513e de2c 7d3e
00000150: b3aa 9c3e f803 443e 5bca b03e 9bd2 c13e
00000160: 4697 9fbe 1fd9 f63d aa2a 8b3e 670f b7be
00000170: 1c26 19bd a19a 74be 5fc7 1bbe b323 8d3e
00000180: 7dc0 59be af4f 8ebe 201c 8dbe e318 aebd
00000190: b97d bf3e 3b11 6fbe c7e3 b13e 86ab d93d
000001a0: 54b7 94bc 0ed3 96bc 43fe 903e 4244 82be
000001b0: d6a4 a8bd 47f5 9a3d 836b 7e3e 9c03 88be
000001c0: 2cbb 9cbe 9bed 83bd 821a 413e a16e f8bd
000001d0: eb40 433e dbef ce3d 02cf 75be 9d11 253d
000001e0: 3db0 e13d 41cc 0fbe a1f1 6e3e 52fd abbe
000001f0: e112 4bbe 9a9e 393d 3dc8 28be cd2e 1c3d
00000200: 3dbd 983d c9f9 a9be 268b 933e 560d a3be
00000210: fef3 773e c90a 423d bb24 cb3d 8b98 1d3c
00000220: e170 423e 30db 3bbe 5ecc 7ebe 5f0a c7be
00000230: b470 60be af84 903e 6bf2 afbe 6be7 883e
00000240: 52e7 18bd ba26 1bbe b279 7d3e ce42 2a3e
00000250: 39a4 c9bc e009 37be d628 81be 3bea 4dbd
00000260: 1372 ab3d efba 9b3e 5da7 e7be b4ee 123f
00000270: eed8 b9bc b5ae 0ebd 760a 61be 08ed 59be
00000280: afb0 a1bd b5cf 8c3e db7a 9ebe 018f 43be
00000290: bf5e 1e3e a689 433d b728 b93d 0903 b13e
000002a0: 726f 9abe 042c 4f3e 2b8a b43b ab54 543d
000002b0: 2819 443e 2732 9ebe 6672 843e 061f 1abe
000002c0: d762 9abe 0c8f 2cbd cd4b b13e ce66 3ebe
000002d0: c3b8 313e 9577 21bd ca21 593e 502d e9bd
000002e0: e13a fe3d e163 51bd bab5 3e3e 2f78 be3e
000002f0: fbf3 ac3d bf8b 673e 538e a33d a458 b6bd
00000300: 0ab7 59be 60ff 953d 12be a0bd ff64 a53d
00000310: 1b9b 803e 97f4 1cbb 2f6d b23e 0f24 a63e
00000320: 08e1 5b3e 03be 91be 0c90 953e 2251 743e
00000330: b85b 523e 8d2a bd3e 5bfd 10be 6e8f b4bb
00000340: 7d37 99bd c80e 00be 313b 6fbe c02d a73c
00000350: cdd8 80be c0c5 483c 60cf 3abc 51a3 7dbe
00000360: d06e 98be 5a47 42be b28d 89bd 78ec 113d
00000370: 837f ce3e 6eec 873e ab26 753e 9530 633e
00000380: 5e7b f0bd e181 43bd d0e9 843e fd91 ab3d
00000390: b754 393d 864e c5bd ee88 583e 708e 34bd
000003a0: 3e1a 58be 5373 533e 10cc 3cbe 35ce 74be
000003b0: f920 f13d 154a b7bd 31df c53b 854e fc3d
000003c0: 3f5f edbc dc30 6bbe 80ca ebbb c26c 93bd
000003d0: 9ada 8f3d 771c 333e 4ea4 93be 8954 51be
000003e0: bc29 153e fe22 5bbe 2daf 72be 2935 56be
000003f0: 3068 15be eb08 4fbe a9ca 06be b805 fb3e

linear1.bias f4 [256]
0.11413273 0.1472287 -0.15238266 -0.13412859 0.029402278 0.19399422 -0.14376427 -0.23351267
0.016765978 -0.23160344 0.052268427 0.06295494 -0.07995257 -0.065011196 0.16524495 0.038369022
-0.05670988 -0.036608484 -0.13868324 -0.07373834 0.045946058 -0.23549147 -0.1475535 0.19362621
0.32532805 0.09855403 0.16970044 -0.22780201 -0.0051989453 -0.092399076 0.11208906 -0.23014008
-0.058933735 -0.06960581 0.27512035 0.07514087 -0.18488362 -0.361618 -0.002622484 0.13735239
-0.13973658 0.11761498 -0.15700266 0.09291768 0.20262352 0.28967863 -0.061609756 -0.17519441
-0.037104547 -0.00066211435 -0.107504 -0.003509109 0.092681624 0.09136172 0.07021915 0.10092683
0.014216872 0.28453225 -0.036246676 0.32136992 0.12662424 0.280318 -0.16989711 -0.16353966
0.12923299 -0.15103185 0.047000423 0.16888933 -0.1264008 -0.098776564 -0.0857453 -0.028547592
0.12357761 0.28972805 -0.051640514 0.13561009 -0.14424157 -0.064826734 -0.026056066 0.2917971
-0.029542586 -0.2503615 -0.069575794 -0.09139868 -0.16992608 -0.2824675 0.20835495 -0.13416627
-0.11270483 0.043679673 -0.11496111 0.17076276 -0.26894477 0.21581182 0.26016036 0.3590894
0.06108668 0.12265803 -0.022293966 -0.17367335 -0.20527358 -0.006933646 -0.21808751 0.1548556
-0.008974437 -0.028386211 0.030832997 -0.09205322 0.28289962 0.24809441 -0.13186988 -0.07174406
-0.020913225 -0.14169927 0.18811308 0.09085105 -0.046459775 -0.17603432 0.3060557 -0.13431178
-0.17581603 0.31394902 -0.06710952 -0.014148191 0.010781961 -0.045430705 0.010137848 0.24237423
-0.013167895 -0.16708751 0.28270626 -0.009503071 -0.008579328 -0.09810719 -0.23373649 -0.051007725
0.012861701 -0.20239624 -0.05297449 -0.0710974 0.13672338 -0.34724152 -0.071909614 -0.10806536
0.18286228 -0.17969793 -0.089420654 0.08129415 0.12358269 0.14624797 0.26221198 -0.019088533
0.20231657 0.0040315473 -0.113745004 0.080076 0.047639128 0.08720368 0.23137668 -0.24967943
-0.116496526 -0.3206944 0.21558426 -0.07838171 0.023760011 0.09868759 -0.19771369 -0.2751622
-0.24091484 0.18981989 0.16710284 -0.12962477 -0.18635727 0.38031858 -0.301235 0.23791203
-0.28763136 0.20529355 -0.04697942 0.27118462 0.07936017 0.3029054 -0.12827772 -0.090617776
-0.053486604 -0.24169965 0.11539466 -0.019426964 -0.17033993 0.10623256 -0.08433829 -0.12807834
-0.21602851 -0.19092783 -0.16483328 -0.054705437 -0.02409981 0.1847252 0.082430705 -0.20274507
0.09283559 -0.14477235 0.20930324 -0.049576063 0.21472922 -0.019785458 -0.23281465 0.28680322
-0.19595592 -0.18038413 0.3211506 0.28769904 0.00018908031 -0.19577993 0.08541672 0.18459861
-0.13477015 0.09679436 0.09361476 -0.09206957 0.19176382 -0.082061194 0.24930178 -0.08013783
0.19376568 -0.0777266 -0.22022891 -0.2697103 -0.043183994 0.12794428 -0.03566641 -0.059470054
-0.01957677 -0.15683204 0.13973735 -0.14596795 -0.04220275 0.33743715 -0.026977723 -0.047650263
0.17269136 0.024133634 0.29710826 0.11935471 -0.25797477 -0.0735921 -0.17997336 -0.1390528
0.22203177 0.33561906 -0.16913407 0.22597958 0.128426 0.102363735 -0.0040134424 -0.30094448
00000000: 6cbe e93d 1fc3 163e 330a 1cbe 0159 09be
00000010: 0cdd f03c 6ca6 463e f136 13be f21d 6fbe
00000020: ce58 893c 7429 6dbe 6b17 563d 85ee 803d
00000030: 2cbe a3bd 9724 85bd f935 293e d628 1d3d
00000040: 9e48 68bd c7f2 15bd fb02 0ebe 2004 97bd
00000050: ef31 3c3d ad24 71be 4418 17be f345 463e
00000060: 6691 a63e b2d6 c93d f4c5 2d3e ee44 69be
00000070: ea5b aabb ba3b bdbd f38e e53d d7a9 6bbe
00000080: 8064 71bd 7e8d 8ebd 93dc 8c3e 75e3 993d
00000090: 2252 3dbe ff25 b9be fbdd 2bbb 1ba6 0c3e
000000a0: 1b17 0fbe 1fe0 f03d 4ec5 20be a04b be3d
000000b0: 8a7c 4f3e c250 943e 835a 7cbd 2a66 33be
000000c0: f0fa 17bd be91 2dba 0f2b dcbd 14f9 65bb
000000d0: ddcf bd3d da1b bb3d 0fcf 8f3d bab2 ce3d
000000e0: e2ed 683c 36ae 913e 6577 14bd 998a a43e
000000f0: c9a9 013e d785 8f3e 82f9 2dbe f176 27be
00000100: a755 043e 18a8 1abe 8483 403d 53f1 2c3e
00000110: 366f 01be 5e4b cabd 3b9b afbd a4dc e9bc
00000120: 4216 fd3d 3c57 943e 0185 53bd 5fdd 0a3e
00000130: 10b4 13be e1c3 84bd 8873 d5bc 6e66 953e
00000140: 4b03 f2bc 622f 80be c17d 8ebd 3b2f bbbd
00000150: 1a01 2ebe 959f 90be 005b 553e e262 09be
00000160: cad1 e6bd 75e9 323d bb70 ebbd 6fdc 2e3e
00000170: 21b3 89be c6fd 5c3e bd33 853e 91da b73e
00000180: 0736 7a3d 2234 fb3d d6a1 b6bc 6dd7 31be
00000190: 3d33 52be a333 e3bb 5552 5fbe 7792 1e3e
000001a0: 8409 13bc 338a e8bc 7b95 fc3c 6686 bcbd
000001b0: 38d8 903e 760c 7e3e e608 07be 8dee 92bd
000001c0: 3652 abbc 9d19 11be b7a0 403e 1e10 ba3d
000001d0: 9b4c 3ebd 5742 34be 55b3 9c3e 0789 09be
000001e0: 1e09 34be edbd a03e b770 89bd d0cd 67bc
000001f0: d2a6 303c 8c15 3abd 3719 263c f330 783e
00000200: 28be 57bc fd18 2bbe e0be 903e c5b2 1bbc
00000210: 4f90 0cbc 6cec c8bd 9e58 6fbe 7aed 50bd
00000220: e2b9 523c f640 4fbe c7fb 58bd 839b 91bd
00000230: 3701 0c3e a4c9 b1be 5945 93bd 5f51 ddbd
00000240: 4040 3b3e bc02 38be 2d22 b7bd 8c7d a63d
00000250: ec18 fd3d 07c2 153e a640 863e 8e5f 9cbc
00000260: 132c 4f3e 121b 843b 24f3 e8bd e3fe a33d
00000270: 3f21 433d d897 b23d 02ee 6c3e f7ab 7fbe
00000280: bb95 eebd 0e32 a4be 1fc2 5c3e 9786 a0bd
00000290: 5ba4 c23c b81c ca3d 7575 4abe 0fe2 8cbe
000002a0: 61b2 76be 2560 423e 021d 2b3e 5bbc 04be
000002b0: 71d4 3ebe 1eb9 c23e 793b 9abe 369f 733e
000002c0: 6b44 93be 7938 523e 7e6d 40bd b6d8 8a3e
000002d0: 9687 a23d 6b16 9b3e 3c5b 03be d095 b9bd
000002e0: c514 5bbd 1d80 77be 0954 ec3d 4c25 9fbc
000002f0: 976d 2ebe 7590 d93d 8eb9 acbd f826 03be
00000300: 9436 5dbe 9682 43be 0eca 28be cf12 60bd
00000310: f76c c5bc 9a28 3d3e 6ed1 a83d 679c 4fbe
00000320: 9620 be3d 343f 14be 9753 563e 4510 4bbd
00000330: fae1 5b3e 1d15 a2bc f766 6ebe dfd7 923e
00000340: aba8 48be 9eb6 38be da6d a43e 4a4d 933e
00000350: dc43 4639 897a 48be f6ee ae3d 6b07 3d3e
00000360: 3001 0abe 1f3c c63d 18b9 bf3d f98e bcbd
00000370: bc5d 443e b30f a8bd f748 7f3e 4d1f a4bd
00000380: 836a 463e 202f 9fbd b083 61be 7817 8abe
00000390: b3e1 30bd d303 033e f116 12bd df96 73bd
000003a0: 765f a0bc 9498 20be 4f17 0f3e 9f78 15be
000003b0: cadc 2cbd 90c4 ac3e 6300 ddbc ec2c 43bd
000003c0: 01d6 303e e6b3 c53c 931e 983e 3e70 f43d
000003d0: 4515 84be 74b7 96bd f04a 38be db63 0ebe
000003e0: 4c5c 633e 43d6 ab3e 7b31 2dbe 3167 673e
000003f0: 1b82 033e 14a4 d13d 3283 83bb 6515 9abe

linear2.weight f4 [3, 256]
-0.102635466 -0.035376523 -0.07389893 -0.28974575 -0.061088894 0.10759085 0.17475694 -0.10757484
-0.045421172 0.12339762 -0.09111165 -0.12749596 -0.19232255 -0.21116567 0.22008514 -0.11566483
0.13274989 -0.09923718 -0.137811 0.026907265 -0.09412107 -0.06563687 -0.037192777 0.041804727
0.028440207 -0.07463656 0.09069836 0.083944134 -0.0972578 -0.29467076 0.0013699831 -0.05979078
-0.2400742 -0.2279124 -0.11794988 0.14634494 -0.098416835 0.026976291 -0.05295614 -0.04254608
-0.10420783 0.11831868 0.016801823 -0.028271886 0.1553321 0.091877386 -0.29921886 0.12293505
-0.28422818 -0.10573591 -0.16251525 0.07460387 -0.09244057 -0.20286791 0.031265356 -0.0025380868
-0.13608335 0.0045758993 -0.16602257 0.13358033 -0.01768766 0.110327594 0.11176918 0.014658648
-0.068526655 -0.25035554 0.17242801 -0.084591895 0.011608201 -0.2106524 -0.19281404 0.28203395
-0.16019677 0.01302134 -0.13632132 0.14193068 0.035543676 -0.08041729 -0.1941924 -0.040679794
0.12024272 0.035370097 0.18765594 -0.15397659 -0.038923785 0.028460734 0.25635463 0.025339667
-0.20358711 -0.07511308 -0.08934466 -0.11484885 0.022765324 0.018179605 0.03361143 0.12983291
-0.038220417 -0.22885337 0.022500355 -0.11058847 0.0013948136 0.0030186072 -0.2127926 -0.094642594
0.15524755 -0.07937399 -0.30376074 -0.0017124343 -0.014910134 -0.101039946 -0.048270125 -0.18109466
0.16086122 -0.05394465 0.101873375 -0.052488573 -0.2129668 -0.09948115 0.081206866 -0.1709018
-0.016995698 -0.0054459255 -0.20540057 -0.10010346 0.007748726 -0.20139977 -0.00631182 -0.007800314
-0.1794988 -0.15793534 0.06457463 0.16293934 -0.02087207 -0.0958601 -0.07228667 0.0044036563
0.1587645 0.10220571 -0.056432582 -0.19232291 -0.026039863 0.0023753617 -0.20141727 0.030281618
0.008272568 -0.21247372 -0.039439127 0.08957327 -0.10818946 0.18598548 0.025156979 -0.07710364
0.17446698 -0.098728366 0.104719326 -0.047436453 -0.012789369 -0.04647159 -0.01555764 -0.013521451
0.028321423 -0.045267537 0.0669435 0.18690509 -0.20430207 -0.099556364 -0.11809499 -0.13934445
-0.17537397 -0.03030679 0.15991604 0.03994609 -0.004729137 0.18663582 -0.2666708 0.14582196
-0.034039576 -0.04864788 -0.021149945 0.069343984 -0.12114133 0.115687676 -0.1098034 -0.17479438
-0.07546854 -0.03741554 0.023425944 -0.03285662 -0.26880118 -0.15069659 -0.08963353 -0.12149112
-0.045948826 -0.08287872 -0.1690305 -0.05563995 -0.098104395 0.038587596 -0.055094194 0.081242315
0.10789307 -0.15822518 -0.040564187 0.23312484 0.0928503 -0.013664501 -0.13880087 0.06358295
-0.098244466 -0.19846532 0.04813733 -0.039863933 -0.03421574 0.17295362 -0.054154694 -0.12595804
0.24845698 -0.04648056 -0.029199233 0.036842443 0.20521285 -0.043672677 0.16298304 0.20739101
-0.21838981 -0.040406775 0.123750776 -0.07681256 0.13791555 0.19973563 -0.16806893 -0.13796335
-0.08563884 -0.07823796 0.07339041 -0.14287747 -0.026690628 0.12304675 -0.45526412 -0.2809479
-0.033758692 -0.25206068 -0.12372558 -0.0693679 -0.051219117 -0.1526409 -0.10456321 -0.08717316
0.03594319 0.08459346 -0.15150163 0.020146826 -0.112458535 0.09323975 -0.008321485 -0.03298869
00000000: 8b32 d2bd f9e6 10bd 5258 97bd 8e59 94be
00000010: 5938 7abd 9758 dc3d 7cf3 323e 3350 dcbd
00000020: 8d0b 3abd e4b7 fc3d bf98 babd 4d8e 02be
00000030: 34f0 44be d03b 58be 005e 613e afe1 ecbd
00000040: 96ef 073e dd3c cbbd 541e 0dbe a06c dc3c
00000050: 8cc2 c0bd a06c 86bd 7457 18bd 6f3b 2b3d
00000060: 70fb e83c 0edb 98bd 10c0 b93d e7ea ab3d
00000070: 192f c7bd 16df 96be 0191 b33a 2de7 74bd
00000080: 03d6 75be de61 69be b58f f1bd 73db 153e
00000090: c48e c9bd 62fd dc3c 8ae8 58bd cc44 2ebd
000000a0: ea6a d5bd 1051 f23d faa3 893c 719a e7bc
000000b0: 610f 1f3e 362a bc3d 3733 99be 5fc5 fb3d
000000c0: 5b86 91be 128c d8bd 666a 26be eac9 983d
000000d0: 7b51 bdbd 9bbc 4fbe 1a10 003d 0856 26bb
000000e0: 6f59 0bbe 6df1 953b d201 2abe 48c9 083e
000000f0: b6e5 90bc 6ff3 e13d 3de7 e43d d32a 703c
00000100: b457 8cbd 9a2e 80be f890 303e 843e adbd
00000110: 5330 3e3c 43b5 57be 0b71 45be c166 903e
00000120: 9f0a 24be 7557 553c d197 0bbe 4756 113e
00000130: 3f96 113d d2b1 a4bd 5fda 46be db9f 26bd
00000140: d141 f63d 3ce0 103d e128 403e 0aac 1dbe
00000150: 8c6e 1fbd 7c26 e93c ea40 833e 2295 cf3c
00000160: 2479 50be e3d4 99bd 55fa b6bd e035 ebbd
00000170: 587e ba3c 65ed 943c 24ac 093d ebf2 043e
00000180: 038d 1cbd 8a58 6abe aa52 b83c 357c e2bd
00000190: 2ed2 b63a d3d3 453b 4ee6 59be fad3 c1bd
000001a0: 37f9 1e3e d58e a2bd 8786 9bbe c373 e0ba
000001b0: a249 74bc 08ee cebd e5b6 45bd e170 39be
000001c0: ceb8 243e 11f5 5cbd fda2 d03d 42fe 56bd
000001d0: f813 5abe c6bc cbbd c94f a63d e200 2fbe
000001e0: 903a 8bbc bc73 b2bb 8754 52be 0b03 cdbd
000001f0: 06e9 fd3b be3b 4ebe 62d3 cebb c799 ffbb
00000200: 89ce 37be cdb9 21be b43f 843d 92d9 263e
00000210: e7fb aabc 4d52 c4bd 090b 94bd 8c4c 903b
00000220: 2993 223e 3a51 d13d da25 67bd 4cf0 44be
00000230: 8d51 d5bc f5ab 1b3b 5440 4ebe 2811 f83c
00000240: aa89 073c b692 59be ec8a 21bd 3172 b73d
00000250: 7092 ddbd fa72 3e3e 0216 ce3c 83e8 9dbd
00000260: 79a7 323e 1932 cabd 1677 d63d ba4c 42bd
00000270: 808a 51bc fe58 3ebd 79e5 7ebc 1389 5dbc
00000280: 5402 e83c 746a 39bd ac19 893d 0c64 3f3e
00000290: 9034 51be 35e4 cbbd c9db f1bd 50b0 0ebe
000002a0: 3c95 33be f245 f8bc 08c1 233e 839e 233d
000002b0: e0f6 9abb 761d 3f3e 1389 88be 5a52 153e
000002c0: 156d 0bbd 0043 47bd a642 adbc 3804 8e3d
000002d0: f218 f8bd a9ed ec3d 9be0 e0bd 4cfd 32be
000002e0: 408f 9abd 0a41 19bd c4e7 bf3c aa94 06bd
000002f0: 4fa0 89be 3550 1abe c991 b7bd 56d0 f8bd
00000300: d634 3cbd 51bc a9bd 5516 2dbe b7e6 63bd
00000310: f5ea c8bd 070e 1e3d 73aa 61bd 5f62 a63d
00000320: 0bf7 dc3d c805 22be a226 26bd 47b8 6e3e
00000330: 4c28 be3d 12e1 5fbc d121 0ebe c737 823d
00000340: 6534 c9bd 7e3a 4bbe a62b 453d 5d48 23bd
00000350: ce25 0cbd c11a 313e 50d1 5dbd 25fb 00be
00000360: 826b 7e3e 6662 3ebd 3b33 efbc 1ae8 163d
00000370: 5123 523e 1fe2 32bd 07e5 263e 4f5e 543e
00000380: 94a1 5fbe 9381 25bd 0c71 fd3d e74f 9dbd
00000390: bc39 0d3e 7f87 4c3e 431a 2cbe 4446 0dbe
000003a0: 6b63 afbd 393b a0bd b64d 963d 794e 12be
000003b0: 4ea6 dabc efff fb3d 6118 e9be 67d8 8fbe
000003c0: 8e46 0abd 190e 81be d663 fdbd c210 8ebd
000003d0: 23cb 51bd e54d 1cbe 3c25 d6bd d787 b2bd
000003e0: 2b39 133d 563f ad3d 3e23 1bbe f50a a53c
000003f0: a950 e6bd 7bf4 be3d d656 08bc 261f 07bd

linear2.bias f4 [3]
0.06622714 -0.11991317 -0.088768065
00000000: 18a2 873d 0995 f5bd 08cc b5bd
